…
I0530 14:08:07.069476 11220 net.cpp:294] The NetState phase (0) differed from the phase (1) specified by a rule in layer data
I0530 14:08:07.069476 11220 net.cpp:294] The NetState phase (0) differed from the phase (1) specified by a rule in layer accuracy/top1
I0530 14:08:07.069476 11220 net.cpp:51] Initializing net from parameters: 
name: "VGG-15"
state {
  phase: TRAIN
  level: 0
  stage: ""
}
layer {
  name: "data"
  type: "Data"
  top: "data"
  top: "label"
  include {
    phase: TRAIN
  }
  transform_param {
    mean_file: "mean.binaryproto"
  }
  data_param {
    source: "train_lmdb"
    batch_size: 60
    backend: LMDB
  }
}
layer {
  name: "conv1_1"
  type: "Convolution"
  bottom: "data"
  top: "conv1_1"
  convolution_param {
    num_output: 64
    pad: 1
    kernel_size: 3
    weight_filler {
      type: "xavier"
      std: 0.01
    }
    bias_filler {
      type: "constant"
      value: 0.1
    }
  }
}
layer {
  name: "relu1_1"
  type: "ReLU"
  bottom: "conv1_1"
  top: "conv1_1"
}
layer {
  name: "conv1_2"
  type: "Convolution"
  bottom: "conv1_1"
  top: "conv1_2"
  convolution_param {
    num_output: 128
    pad: 1
    kernel_size: 3
    weight_filler {
      type: "xavier"
      std: 0.01
    }
    bias_filler {
      type: "constant"
      value: 0.1
    }
  }
}
layer {
  name: "relu1_2"
  type: "ReLU"
  bottom: "conv1_2"
  top: "conv1_2"
}
layer {
  name: "pool1"
  type: "Pooling"
  bottom: "conv1_2"
  top: "pool1"
  pooling_param {
    pool: MAX
    kernel_size: 2
    stride: 2
  }
}
layer {
  name: "conv2_1"
  type: "Convolution"
  bottom: "pool1"
  top: "conv2_1"
  convolution_param {
    num_output: 64
    pad: 1
    kernel_size: 3
    weight_filler {
      type: "xavier"
      std: 0.01
    }
    bias_filler {
      type: "constant"
      value: 0.1
    }
  }
}
layer {
  name: "relu2_1"
  type: "ReLU"
  bottom: "conv2_1"
  top: "conv2_1"
}
layer {
  name: "conv2_2"
  type: "Convolution"
  bottom: "conv2_1"
  top: "conv2_2"
  convolution_param {
    num_output: 128
    pad: 1
    kernel_size: 3
    weight_filler {
      type: "xavier"
      std: 0.01
    }
    bias_filler {
      type: "constant"
      value: 0.1
    }
  }
}
layer {
  name: "relu2_2"
  type: "ReLU"
  bottom: "conv2_2"
  top: "conv2_2"
}
layer {
  name: "pool2"
  type: "Pooling"
  bottom: "conv2_2"
  top: "pool2"
  pooling_param {
    pool: MAX
    kernel_size: 2
    stride: 2
  }
}
layer {
  name: "conv3_1"
  type: "Convolution"
  bottom: "pool2"
  top: "conv3_1"
  convolution_param {
    num_output: 128
    pad: 1
    kernel_size: 3
    weight_filler {
      type: "xavier"
      std: 0.01
    }
    bias_filler {
      type: "constant"
      value: 0.1
    }
  }
}
layer {
  name: "relu3_1"
  type: "ReLU"
  bottom: "conv3_1"
  top: "conv3_1"
}
layer {
  name: "conv3_2"
  type: "Convolution"
  bottom: "conv3_1"
  top: "conv3_2"
  convolution_param {
    num_output: 128
    pad: 1
    kernel_size: 3
    weight_filler {
      type: "xavier"
      std: 0.01
    }
    bias_filler {
      type: "constant"
      value: 0.1
    }
  }
}
layer {
  name: "relu3_2"
  type: "ReLU"
  bottom: "conv3_2"
  top: "conv3_2"
}
layer {
  name: "conv3_3"
  type: "Convolution"
  bottom: "conv3_2"
  top: "conv3_3"
  convolution_param {
    num_output: 128
    pad: 1
    kernel_size: 3
    weight_filler {
      type: "xavier"
      std: 0.01
    }
    bias_filler {
      type: "constant"
      value: 0.1
    }
  }
}
layer {
  name: "relu3_3"
  type: "ReLU"
  bottom: "conv3_3"
  top: "conv3_3"
}
layer {
  name: "pool3"
  type: "Pooling"
  bottom: "conv3_3"
  top: "pool3"
  pooling_param {
    pool: MAX
    kernel_size: 2
    stride: 2
  }
}
layer {
  name: "conv4_1"
  type: "Convolution"
  bottom: "pool3"
  top: "conv4_1"
  convolution_param {
    num_output: 256
    pad: 1
    kernel_size: 3
    weight_filler {
      type: "xavier"
      std: 0.01
    }
    bias_filler {
      type: "constant"
      value: 0.1
    }
  }
}
layer {
  name: "relu4_1"
  type: "ReLU"
  bottom: "conv4_1"
  top: "conv4_1"
}
layer {
  name: "conv4_2"
  type: "Convolution"
  bottom: "conv4_1"
  top: "conv4_2"
  convolution_param {
    num_output: 256
    pad: 1
    kernel_size: 3
    weight_filler {
      type: "xavier"
      std: 0.01
    }
    bias_filler {
      type: "constant"
      value: 0.1
    }
  }
}
layer {
  name: "relu4_2"
  type: "ReLU"
  bottom: "conv4_2"
  top: "conv4_2"
}
layer {
  name: "conv4_3"
  type: "Convolution"
  bottom: "conv4_2"
  top: "conv4_3"
  convolution_param {
    num_output: 256
    pad: 1
    kernel_size: 3
    weight_filler {
      type: "xavier"
      std: 0.01
    }
    bias_filler {
      type: "constant"
      value: 0.1
    }
  }
}
layer {
  name: "relu4_3"
  type: "ReLU"
  bottom: "conv4_3"
  top: "conv4_3"
}
layer {
  name: "pool4"
  type: "Pooling"
  bottom: "conv4_3"
  top: "pool4"
  pooling_param {
    pool: MAX
    kernel_size: 2
    stride: 2
  }
}
layer {
  name: "conv5_1"
  type: "Convolution"
  bottom: "pool4"
  top: "conv5_1"
  convolution_param {
    num_output: 256
    pad: 1
    kernel_size: 3
    weight_filler {
      type: "xavier"
      std: 0.01
    }
    bias_filler {
      type: "constant"
      value: 0.1
    }
  }
}
layer {
  name: "relu5_1"
  type: "ReLU"
  bottom: "conv5_1"
  top: "conv5_1"
}
layer {
  name: "conv5_2"
  type: "Convolution"
  bottom: "conv5_1"
  top: "conv5_2"
  convolution_param {
    num_output: 256
    pad: 1
    kernel_size: 3
    weight_filler {
      type: "xavier"
      std: 0.01
    }
    bias_filler {
      type: "constant"
      value: 0.1
    }
  }
}
layer {
  name: "relu5_2"
  type: "ReLU"
  bottom: "conv5_2"
  top: "conv5_2"
}
layer {
  name: "conv5_3"
  type: "Convolution"
  bottom: "conv5_2"
  top: "conv5_3"
  convolution_param {
    num_output: 256
    pad: 1
    kernel_size: 3
    weight_filler {
      type: "xavier"
      std: 0.01
    }
    bias_filler {
      type: "constant"
      value: 0.1
    }
  }
}
layer {
  name: "relu5_3"
  type: "ReLU"
  bottom: "conv5_3"
  top: "conv5_3"
}
layer {
  name: "pool5"
  type: "Pooling"
  bottom: "conv5_3"
  top: "pool5"
  pooling_param {
    pool: MAX
    kernel_size: 2
    stride: 2
  }
}
layer {
  name: "drop6"
  type: "Dropout"
  bottom: "pool5"
  top: "pool5"
  dropout_param {
    dropout_ratio: 0.5
  }
}
layer {
  name: "fc6"
  type: "InnerProduct"
  bottom: "pool5"
  top: "fc6"
  inner_product_param {
    num_output: 512
    weight_filler {
      type: "xavier"
      std: 0.01
    }
    bias_filler {
      type: "constant"
      value: 0.1
    }
  }
}
layer {
  name: "relu6"
  type: "ReLU"
  bottom: "fc6"
  top: "fc6"
}
layer {
  name: "fc7"
  type: "InnerProduct"
  bottom: "fc6"
  top: "fc7"
  inner_product_param {
    num_output: 2
    weight_filler {
      type: "xavier"
      std: 0.01
    }
    bias_filler {
      type: "constant"
      value: 0.1
    }
  }
}
layer {
  name: "loss"
  type: "SoftmaxWithLoss"
  bottom: "fc7"
  bottom: "label"
  top: "loss/loss"
}
I0530 14:08:07.071475 11220 layer_factory.hpp:77] Creating layer data
I0530 14:08:07.073474 11220 db_lmdb.cpp:40] Opened lmdb train_lmdb
I0530 14:08:07.074481 11220 net.cpp:84] Creating Layer data
I0530 14:08:07.074481 11220 net.cpp:380] data -> data
I0530 14:08:07.074481 11220 net.cpp:380] data -> label
I0530 14:08:07.075475 11220 data_transformer.cpp:25] Loading mean file from: mean.binaryproto
I0530 14:08:07.076474 11220 data_layer.cpp:45] output data size: 60,1,64,64
I0530 14:08:07.080473 11220 net.cpp:122] Setting up data
I0530 14:08:07.080473 11220 net.cpp:129] Top shape: 60 1 64 64 (245760)
I0530 14:08:07.080473 11220 net.cpp:129] Top shape: 60 (60)
I0530 14:08:07.081476 11220 net.cpp:137] Memory required for data: 983280
I0530 14:08:07.081476 11220 layer_factory.hpp:77] Creating layer conv1_1
I0530 14:08:07.081476 11220 net.cpp:84] Creating Layer conv1_1
I0530 14:08:07.082476 11220 net.cpp:406] conv1_1 <- data
I0530 14:08:07.082476 11220 net.cpp:380] conv1_1 -> conv1_1
I0530 14:08:07.083475 11220 net.cpp:122] Setting up conv1_1
I0530 14:08:07.083475 11220 net.cpp:129] Top shape: 60 64 64 64 (15728640)
I0530 14:08:07.083475 11220 net.cpp:137] Memory required for data: 63897840
I0530 14:08:07.084476 11220 layer_factory.hpp:77] Creating layer relu1_1
I0530 14:08:07.084476 11220 net.cpp:84] Creating Layer relu1_1
I0530 14:08:07.084476 11220 net.cpp:406] relu1_1 <- conv1_1
I0530 14:08:07.085476 11220 net.cpp:367] relu1_1 -> conv1_1 (in-place)
I0530 14:08:07.085476 11220 net.cpp:122] Setting up relu1_1
I0530 14:08:07.085476 11220 net.cpp:129] Top shape: 60 64 64 64 (15728640)
I0530 14:08:07.086475 11220 net.cpp:137] Memory required for data: 126812400
I0530 14:08:07.086475 11220 layer_factory.hpp:77] Creating layer conv1_2
I0530 14:08:07.086475 11220 net.cpp:84] Creating Layer conv1_2
I0530 14:08:07.086475 11220 net.cpp:406] conv1_2 <- conv1_1
I0530 14:08:07.088474 11220 net.cpp:380] conv1_2 -> conv1_2
I0530 14:08:07.089681 11220 net.cpp:122] Setting up conv1_2
I0530 14:08:07.089681 11220 net.cpp:129] Top shape: 60 128 64 64 (31457280)
I0530 14:08:07.089681 11220 net.cpp:137] Memory required for data: 252641520
I0530 14:08:07.089681 11220 layer_factory.hpp:77] Creating layer relu1_2
I0530 14:08:07.090687 11220 net.cpp:84] Creating Layer relu1_2
I0530 14:08:07.090687 11220 net.cpp:406] relu1_2 <- conv1_2
I0530 14:08:07.090687 11220 net.cpp:367] relu1_2 -> conv1_2 (in-place)
I0530 14:08:07.090687 11220 net.cpp:122] Setting up relu1_2
I0530 14:08:07.091687 11220 net.cpp:129] Top shape: 60 128 64 64 (31457280)
I0530 14:08:07.091687 11220 net.cpp:137] Memory required for data: 378470640
I0530 14:08:07.091687 11220 layer_factory.hpp:77] Creating layer pool1
I0530 14:08:07.091687 11220 net.cpp:84] Creating Layer pool1
I0530 14:08:07.092686 11220 net.cpp:406] pool1 <- conv1_2
I0530 14:08:07.092686 11220 net.cpp:380] pool1 -> pool1
I0530 14:08:07.092686 11220 net.cpp:122] Setting up pool1
I0530 14:08:07.092686 11220 net.cpp:129] Top shape: 60 128 32 32 (7864320)
I0530 14:08:07.093686 11220 net.cpp:137] Memory required for data: 409927920
I0530 14:08:07.093686 11220 layer_factory.hpp:77] Creating layer conv2_1
I0530 14:08:07.093686 11220 net.cpp:84] Creating Layer conv2_1
I0530 14:08:07.093686 11220 net.cpp:406] conv2_1 <- pool1
I0530 14:08:07.094686 11220 net.cpp:380] conv2_1 -> conv2_1
I0530 14:08:07.094686 11220 net.cpp:122] Setting up conv2_1
I0530 14:08:07.094686 11220 net.cpp:129] Top shape: 60 64 32 32 (3932160)
I0530 14:08:07.095686 11220 net.cpp:137] Memory required for data: 425656560
I0530 14:08:07.095686 11220 layer_factory.hpp:77] Creating layer relu2_1
I0530 14:08:07.095686 11220 net.cpp:84] Creating Layer relu2_1
I0530 14:08:07.095686 11220 net.cpp:406] relu2_1 <- conv2_1
I0530 14:08:07.097685 11220 net.cpp:367] relu2_1 -> conv2_1 (in-place)
I0530 14:08:07.097685 11220 net.cpp:122] Setting up relu2_1
I0530 14:08:07.097685 11220 net.cpp:129] Top shape: 60 64 32 32 (3932160)
I0530 14:08:07.098685 11220 net.cpp:137] Memory required for data: 441385200
I0530 14:08:07.098685 11220 layer_factory.hpp:77] Creating layer conv2_2
I0530 14:08:07.098685 11220 net.cpp:84] Creating Layer conv2_2
I0530 14:08:07.098685 11220 net.cpp:406] conv2_2 <- conv2_1
I0530 14:08:07.098685 11220 net.cpp:380] conv2_2 -> conv2_2
I0530 14:08:07.099686 11220 net.cpp:122] Setting up conv2_2
I0530 14:08:07.099686 11220 net.cpp:129] Top shape: 60 128 32 32 (7864320)
I0530 14:08:07.099686 11220 net.cpp:137] Memory required for data: 472842480
I0530 14:08:07.100687 11220 layer_factory.hpp:77] Creating layer relu2_2
I0530 14:08:07.100687 11220 net.cpp:84] Creating Layer relu2_2
I0530 14:08:07.100687 11220 net.cpp:406] relu2_2 <- conv2_2
I0530 14:08:07.100687 11220 net.cpp:367] relu2_2 -> conv2_2 (in-place)
I0530 14:08:07.101686 11220 net.cpp:122] Setting up relu2_2
I0530 14:08:07.101686 11220 net.cpp:129] Top shape: 60 128 32 32 (7864320)
I0530 14:08:07.101686 11220 net.cpp:137] Memory required for data: 504299760
I0530 14:08:07.101686 11220 layer_factory.hpp:77] Creating layer pool2
I0530 14:08:07.102687 11220 net.cpp:84] Creating Layer pool2
I0530 14:08:07.102687 11220 net.cpp:406] pool2 <- conv2_2
I0530 14:08:07.102687 11220 net.cpp:380] pool2 -> pool2
I0530 14:08:07.102687 11220 net.cpp:122] Setting up pool2
I0530 14:08:07.103688 11220 net.cpp:129] Top shape: 60 128 16 16 (1966080)
I0530 14:08:07.103688 11220 net.cpp:137] Memory required for data: 512164080
I0530 14:08:07.103688 11220 layer_factory.hpp:77] Creating layer conv3_1
I0530 14:08:07.103688 11220 net.cpp:84] Creating Layer conv3_1
I0530 14:08:07.103688 11220 net.cpp:406] conv3_1 <- pool2
I0530 14:08:07.104686 11220 net.cpp:380] conv3_1 -> conv3_1
I0530 14:08:07.105685 11220 net.cpp:122] Setting up conv3_1
I0530 14:08:07.105685 11220 net.cpp:129] Top shape: 60 128 16 16 (1966080)
I0530 14:08:07.105685 11220 net.cpp:137] Memory required for data: 520028400
I0530 14:08:07.105685 11220 layer_factory.hpp:77] Creating layer relu3_1
I0530 14:08:07.106685 11220 net.cpp:84] Creating Layer relu3_1
I0530 14:08:07.107687 11220 net.cpp:406] relu3_1 <- conv3_1
I0530 14:08:07.107687 11220 net.cpp:367] relu3_1 -> conv3_1 (in-place)
I0530 14:08:07.108687 11220 net.cpp:122] Setting up relu3_1
I0530 14:08:07.108687 11220 net.cpp:129] Top shape: 60 128 16 16 (1966080)
I0530 14:08:07.108687 11220 net.cpp:137] Memory required for data: 527892720
I0530 14:08:07.108687 11220 layer_factory.hpp:77] Creating layer conv3_2
I0530 14:08:07.109688 11220 net.cpp:84] Creating Layer conv3_2
I0530 14:08:07.109688 11220 net.cpp:406] conv3_2 <- conv3_1
I0530 14:08:07.109688 11220 net.cpp:380] conv3_2 -> conv3_2
I0530 14:08:07.110687 11220 net.cpp:122] Setting up conv3_2
I0530 14:08:07.110687 11220 net.cpp:129] Top shape: 60 128 16 16 (1966080)
I0530 14:08:07.110687 11220 net.cpp:137] Memory required for data: 535757040
I0530 14:08:07.111686 11220 layer_factory.hpp:77] Creating layer relu3_2
I0530 14:08:07.111686 11220 net.cpp:84] Creating Layer relu3_2
I0530 14:08:07.111686 11220 net.cpp:406] relu3_2 <- conv3_2
I0530 14:08:07.111686 11220 net.cpp:367] relu3_2 -> conv3_2 (in-place)
I0530 14:08:07.112686 11220 net.cpp:122] Setting up relu3_2
I0530 14:08:07.112686 11220 net.cpp:129] Top shape: 60 128 16 16 (1966080)
I0530 14:08:07.112686 11220 net.cpp:137] Memory required for data: 543621360
I0530 14:08:07.112686 11220 layer_factory.hpp:77] Creating layer conv3_3
I0530 14:08:07.112686 11220 net.cpp:84] Creating Layer conv3_3
I0530 14:08:07.113687 11220 net.cpp:406] conv3_3 <- conv3_2
I0530 14:08:07.113687 11220 net.cpp:380] conv3_3 -> conv3_3
I0530 14:08:07.115684 11220 net.cpp:122] Setting up conv3_3
I0530 14:08:07.115684 11220 net.cpp:129] Top shape: 60 128 16 16 (1966080)
I0530 14:08:07.115684 11220 net.cpp:137] Memory required for data: 551485680
I0530 14:08:07.115684 11220 layer_factory.hpp:77] Creating layer relu3_3
I0530 14:08:07.115684 11220 net.cpp:84] Creating Layer relu3_3
I0530 14:08:07.116688 11220 net.cpp:406] relu3_3 <- conv3_3
I0530 14:08:07.117686 11220 net.cpp:367] relu3_3 -> conv3_3 (in-place)
I0530 14:08:07.117686 11220 net.cpp:122] Setting up relu3_3
I0530 14:08:07.118686 11220 net.cpp:129] Top shape: 60 128 16 16 (1966080)
I0530 14:08:07.118686 11220 net.cpp:137] Memory required for data: 559350000
I0530 14:08:07.118686 11220 layer_factory.hpp:77] Creating layer pool3
I0530 14:08:07.118686 11220 net.cpp:84] Creating Layer pool3
I0530 14:08:07.118686 11220 net.cpp:406] pool3 <- conv3_3
I0530 14:08:07.119688 11220 net.cpp:380] pool3 -> pool3
I0530 14:08:07.119688 11220 net.cpp:122] Setting up pool3
I0530 14:08:07.119688 11220 net.cpp:129] Top shape: 60 128 8 8 (491520)
I0530 14:08:07.119688 11220 net.cpp:137] Memory required for data: 561316080
I0530 14:08:07.119688 11220 layer_factory.hpp:77] Creating layer conv4_1
I0530 14:08:07.120688 11220 net.cpp:84] Creating Layer conv4_1
I0530 14:08:07.120688 11220 net.cpp:406] conv4_1 <- pool3
I0530 14:08:07.120688 11220 net.cpp:380] conv4_1 -> conv4_1
I0530 14:08:07.122707 11220 net.cpp:122] Setting up conv4_1
I0530 14:08:07.122707 11220 net.cpp:129] Top shape: 60 256 8 8 (983040)
I0530 14:08:07.122707 11220 net.cpp:137] Memory required for data: 565248240
I0530 14:08:07.122707 11220 layer_factory.hpp:77] Creating layer relu4_1
I0530 14:08:07.123688 11220 net.cpp:84] Creating Layer relu4_1
I0530 14:08:07.123688 11220 net.cpp:406] relu4_1 <- conv4_1
I0530 14:08:07.123688 11220 net.cpp:367] relu4_1 -> conv4_1 (in-place)
I0530 14:08:07.123688 11220 net.cpp:122] Setting up relu4_1
I0530 14:08:07.123688 11220 net.cpp:129] Top shape: 60 256 8 8 (983040)
I0530 14:08:07.124688 11220 net.cpp:137] Memory required for data: 569180400
I0530 14:08:07.124688 11220 layer_factory.hpp:77] Creating layer conv4_2
I0530 14:08:07.124688 11220 net.cpp:84] Creating Layer conv4_2
I0530 14:08:07.124688 11220 net.cpp:406] conv4_2 <- conv4_1
I0530 14:08:07.124688 11220 net.cpp:380] conv4_2 -> conv4_2
I0530 14:08:07.128684 11220 net.cpp:122] Setting up conv4_2
I0530 14:08:07.128684 11220 net.cpp:129] Top shape: 60 256 8 8 (983040)
I0530 14:08:07.129688 11220 net.cpp:137] Memory required for data: 573112560
I0530 14:08:07.129688 11220 layer_factory.hpp:77] Creating layer relu4_2
I0530 14:08:07.129688 11220 net.cpp:84] Creating Layer relu4_2
I0530 14:08:07.130693 11220 net.cpp:406] relu4_2 <- conv4_2
I0530 14:08:07.130693 11220 net.cpp:367] relu4_2 -> conv4_2 (in-place)
I0530 14:08:07.130693 11220 net.cpp:122] Setting up relu4_2
I0530 14:08:07.131695 11220 net.cpp:129] Top shape: 60 256 8 8 (983040)
I0530 14:08:07.131695 11220 net.cpp:137] Memory required for data: 577044720
I0530 14:08:07.131695 11220 layer_factory.hpp:77] Creating layer conv4_3
I0530 14:08:07.132688 11220 net.cpp:84] Creating Layer conv4_3
I0530 14:08:07.132688 11220 net.cpp:406] conv4_3 <- conv4_2
I0530 14:08:07.132688 11220 net.cpp:380] conv4_3 -> conv4_3
I0530 14:08:07.137684 11220 net.cpp:122] Setting up conv4_3
I0530 14:08:07.137684 11220 net.cpp:129] Top shape: 60 256 8 8 (983040)
I0530 14:08:07.137684 11220 net.cpp:137] Memory required for data: 580976880
I0530 14:08:07.137684 11220 layer_factory.hpp:77] Creating layer relu4_3
I0530 14:08:07.138689 11220 net.cpp:84] Creating Layer relu4_3
I0530 14:08:07.138689 11220 net.cpp:406] relu4_3 <- conv4_3
I0530 14:08:07.138689 11220 net.cpp:367] relu4_3 -> conv4_3 (in-place)
I0530 14:08:07.139688 11220 net.cpp:122] Setting up relu4_3
I0530 14:08:07.139688 11220 net.cpp:129] Top shape: 60 256 8 8 (983040)
I0530 14:08:07.139688 11220 net.cpp:137] Memory required for data: 584909040
I0530 14:08:07.140687 11220 layer_factory.hpp:77] Creating layer pool4
I0530 14:08:07.140687 11220 net.cpp:84] Creating Layer pool4
I0530 14:08:07.140687 11220 net.cpp:406] pool4 <- conv4_3
I0530 14:08:07.140687 11220 net.cpp:380] pool4 -> pool4
I0530 14:08:07.141687 11220 net.cpp:122] Setting up pool4
I0530 14:08:07.141687 11220 net.cpp:129] Top shape: 60 256 4 4 (245760)
I0530 14:08:07.141687 11220 net.cpp:137] Memory required for data: 585892080
I0530 14:08:07.142690 11220 layer_factory.hpp:77] Creating layer conv5_1
I0530 14:08:07.142690 11220 net.cpp:84] Creating Layer conv5_1
I0530 14:08:07.142690 11220 net.cpp:406] conv5_1 <- pool4
I0530 14:08:07.142690 11220 net.cpp:380] conv5_1 -> conv5_1
I0530 14:08:07.146684 11220 net.cpp:122] Setting up conv5_1
I0530 14:08:07.146684 11220 net.cpp:129] Top shape: 60 256 4 4 (245760)
I0530 14:08:07.147687 11220 net.cpp:137] Memory required for data: 586875120
I0530 14:08:07.147687 11220 layer_factory.hpp:77] Creating layer relu5_1
I0530 14:08:07.147687 11220 net.cpp:84] Creating Layer relu5_1
I0530 14:08:07.148686 11220 net.cpp:406] relu5_1 <- conv5_1
I0530 14:08:07.148686 11220 net.cpp:367] relu5_1 -> conv5_1 (in-place)
I0530 14:08:07.148686 11220 net.cpp:122] Setting up relu5_1
I0530 14:08:07.149688 11220 net.cpp:129] Top shape: 60 256 4 4 (245760)
I0530 14:08:07.149688 11220 net.cpp:137] Memory required for data: 587858160
I0530 14:08:07.149688 11220 layer_factory.hpp:77] Creating layer conv5_2
I0530 14:08:07.149688 11220 net.cpp:84] Creating Layer conv5_2
I0530 14:08:07.150689 11220 net.cpp:406] conv5_2 <- conv5_1
I0530 14:08:07.150689 11220 net.cpp:380] conv5_2 -> conv5_2
I0530 14:08:07.154683 11220 net.cpp:122] Setting up conv5_2
I0530 14:08:07.154683 11220 net.cpp:129] Top shape: 60 256 4 4 (245760)
I0530 14:08:07.154683 11220 net.cpp:137] Memory required for data: 588841200
I0530 14:08:07.156689 11220 layer_factory.hpp:77] Creating layer relu5_2
I0530 14:08:07.156689 11220 net.cpp:84] Creating Layer relu5_2
I0530 14:08:07.156689 11220 net.cpp:406] relu5_2 <- conv5_2
I0530 14:08:07.157686 11220 net.cpp:367] relu5_2 -> conv5_2 (in-place)
I0530 14:08:07.157686 11220 net.cpp:122] Setting up relu5_2
I0530 14:08:07.157686 11220 net.cpp:129] Top shape: 60 256 4 4 (245760)
I0530 14:08:07.158687 11220 net.cpp:137] Memory required for data: 589824240
I0530 14:08:07.158687 11220 layer_factory.hpp:77] Creating layer conv5_3
I0530 14:08:07.158687 11220 net.cpp:84] Creating Layer conv5_3
I0530 14:08:07.159687 11220 net.cpp:406] conv5_3 <- conv5_2
I0530 14:08:07.159687 11220 net.cpp:380] conv5_3 -> conv5_3
I0530 14:08:07.163683 11220 net.cpp:122] Setting up conv5_3
I0530 14:08:07.163683 11220 net.cpp:129] Top shape: 60 256 4 4 (245760)
I0530 14:08:07.163683 11220 net.cpp:137] Memory required for data: 590807280
I0530 14:08:07.164690 11220 layer_factory.hpp:77] Creating layer relu5_3
I0530 14:08:07.165690 11220 net.cpp:84] Creating Layer relu5_3
I0530 14:08:07.165690 11220 net.cpp:406] relu5_3 <- conv5_3
I0530 14:08:07.166687 11220 net.cpp:367] relu5_3 -> conv5_3 (in-place)
I0530 14:08:07.166687 11220 net.cpp:122] Setting up relu5_3
I0530 14:08:07.166687 11220 net.cpp:129] Top shape: 60 256 4 4 (245760)
I0530 14:08:07.166687 11220 net.cpp:137] Memory required for data: 591790320
I0530 14:08:07.167699 11220 layer_factory.hpp:77] Creating layer pool5
I0530 14:08:07.167699 11220 net.cpp:84] Creating Layer pool5
I0530 14:08:07.167699 11220 net.cpp:406] pool5 <- conv5_3
I0530 14:08:07.167699 11220 net.cpp:380] pool5 -> pool5
I0530 14:08:07.168687 11220 net.cpp:122] Setting up pool5
I0530 14:08:07.168687 11220 net.cpp:129] Top shape: 60 256 2 2 (61440)
I0530 14:08:07.168687 11220 net.cpp:137] Memory required for data: 592036080
I0530 14:08:07.169697 11220 layer_factory.hpp:77] Creating layer drop6
I0530 14:08:07.169697 11220 net.cpp:84] Creating Layer drop6
I0530 14:08:07.169697 11220 net.cpp:406] drop6 <- pool5
I0530 14:08:07.169697 11220 net.cpp:367] drop6 -> pool5 (in-place)
I0530 14:08:07.170686 11220 net.cpp:122] Setting up drop6
I0530 14:08:07.170686 11220 net.cpp:129] Top shape: 60 256 2 2 (61440)
I0530 14:08:07.170686 11220 net.cpp:137] Memory required for data: 592281840
I0530 14:08:07.170686 11220 layer_factory.hpp:77] Creating layer fc6
I0530 14:08:07.171686 11220 net.cpp:84] Creating Layer fc6
I0530 14:08:07.171686 11220 net.cpp:406] fc6 <- pool5
I0530 14:08:07.171686 11220 net.cpp:380] fc6 -> fc6
I0530 14:08:07.175684 11220 net.cpp:122] Setting up fc6
I0530 14:08:07.175684 11220 net.cpp:129] Top shape: 60 512 (30720)
I0530 14:08:07.175684 11220 net.cpp:137] Memory required for data: 592404720
I0530 14:08:07.176687 11220 layer_factory.hpp:77] Creating layer relu6
I0530 14:08:07.176687 11220 net.cpp:84] Creating Layer relu6
I0530 14:08:07.176687 11220 net.cpp:406] relu6 <- fc6
I0530 14:08:07.177687 11220 net.cpp:367] relu6 -> fc6 (in-place)
I0530 14:08:07.177687 11220 net.cpp:122] Setting up relu6
I0530 14:08:07.177687 11220 net.cpp:129] Top shape: 60 512 (30720)
I0530 14:08:07.177687 11220 net.cpp:137] Memory required for data: 592527600
I0530 14:08:07.178688 11220 layer_factory.hpp:77] Creating layer fc7
I0530 14:08:07.178688 11220 net.cpp:84] Creating Layer fc7
I0530 14:08:07.178688 11220 net.cpp:406] fc7 <- fc6
I0530 14:08:07.178688 11220 net.cpp:380] fc7 -> fc7
I0530 14:08:07.179687 11220 net.cpp:122] Setting up fc7
I0530 14:08:07.179687 11220 net.cpp:129] Top shape: 60 2 (120)
I0530 14:08:07.179687 11220 net.cpp:137] Memory required for data: 592528080
I0530 14:08:07.179687 11220 layer_factory.hpp:77] Creating layer loss
I0530 14:08:07.179687 11220 net.cpp:84] Creating Layer loss
I0530 14:08:07.180687 11220 net.cpp:406] loss <- fc7
I0530 14:08:07.180687 11220 net.cpp:406] loss <- label
I0530 14:08:07.180687 11220 net.cpp:380] loss -> loss/loss
I0530 14:08:07.180687 11220 layer_factory.hpp:77] Creating layer loss
…
I0530 14:08:07.192687 11220 solver.cpp:173] Creating test net (#0) specified by net file: ./train_val.prototxt
I0530 14:08:07.192687 11220 net.cpp:294] The NetState phase (1) differed from the phase (0) specified by a rule in layer data
I0530 14:08:07.193687 11220 net.cpp:51] Initializing net from parameters: 
name: "VGG-15"
state {
  phase: TEST
}
layer {
  name: "data"
  type: "Data"
  top: "data"
  top: "label"
  include {
    phase: TEST
  }
  transform_param {
    mean_file: "mean.binaryproto"
  }
  data_param {
    source: "val_lmdb"
    batch_size: 30
    backend: LMDB
  }
}
layer {
  name: "conv1_1"
  type: "Convolution"
  bottom: "data"
  top: "conv1_1"
  convolution_param {
    num_output: 64
    pad: 1
    kernel_size: 3
    weight_filler {
      type: "xavier"
      std: 0.01
    }
    bias_filler {
      type: "constant"
      value: 0.1
    }
  }
}
layer {
  name: "relu1_1"
  type: "ReLU"
  bottom: "conv1_1"
  top: "conv1_1"
}
layer {
  name: "conv1_2"
  type: "Convolution"
  bottom: "conv1_1"
  top: "conv1_2"
  convolution_param {
    num_output: 128
    pad: 1
    kernel_size: 3
    weight_filler {
      type: "xavier"
      std: 0.01
    }
    bias_filler {
      type: "constant"
      value: 0.1
    }
  }
}
layer {
  name: "relu1_2"
  type: "ReLU"
  bottom: "conv1_2"
  top: "conv1_2"
}
layer {
  name: "pool1"
  type: "Pooling"
  bottom: "conv1_2"
  top: "pool1"
  pooling_param {
    pool: MAX
    kernel_size: 2
    stride: 2
  }
}
layer {
  name: "conv2_1"
  type: "Convolution"
  bottom: "pool1"
  top: "conv2_1"
  convolution_param {
    num_output: 64
    pad: 1
    kernel_size: 3
    weight_filler {
      type: "xavier"
      std: 0.01
    }
    bias_filler {
      type: "constant"
      value: 0.1
    }
  }
}
layer {
  name: "relu2_1"
  type: "ReLU"
  bottom: "conv2_1"
  top: "conv2_1"
}
layer {
  name: "conv2_2"
  type: "Convolution"
  bottom: "conv2_1"
  top: "conv2_2"
  convolution_param {
    num_output: 128
    pad: 1
    kernel_size: 3
    weight_filler {
      type: "xavier"
      std: 0.01
    }
    bias_filler {
      type: "constant"
      value: 0.1
    }
  }
}
layer {
  name: "relu2_2"
  type: "ReLU"
  bottom: "conv2_2"
  top: "conv2_2"
}
layer {
  name: "pool2"
  type: "Pooling"
  bottom: "conv2_2"
  top: "pool2"
  pooling_param {
    pool: MAX
    kernel_size: 2
    stride: 2
  }
}
layer {
  name: "conv3_1"
  type: "Convolution"
  bottom: "pool2"
  top: "conv3_1"
  convolution_param {
    num_output: 128
    pad: 1
    kernel_size: 3
    weight_filler {
      type: "xavier"
      std: 0.01
    }
    bias_filler {
      type: "constant"
      value: 0.1
    }
  }
}
layer {
  name: "relu3_1"
  type: "ReLU"
  bottom: "conv3_1"
  top: "conv3_1"
}
layer {
  name: "conv3_2"
  type: "Convolution"
  bottom: "conv3_1"
  top: "conv3_2"
  convolution_param {
    num_output: 128
    pad: 1
    kernel_size: 3
    weight_filler {
      type: "xavier"
      std: 0.01
    }
    bias_filler {
      type: "constant"
      value: 0.1
    }
  }
}
layer {
  name: "relu3_2"
  type: "ReLU"
  bottom: "conv3_2"
  top: "conv3_2"
}
layer {
  name: "conv3_3"
  type: "Convolution"
  bottom: "conv3_2"
  top: "conv3_3"
  convolution_param {
    num_output: 128
    pad: 1
    kernel_size: 3
    weight_filler {
      type: "xavier"
      std: 0.01
    }
    bias_filler {
      type: "constant"
      value: 0.1
    }
  }
}
layer {
  name: "relu3_3"
  type: "ReLU"
  bottom: "conv3_3"
  top: "conv3_3"
}
layer {
  name: "pool3"
  type: "Pooling"
  bottom: "conv3_3"
  top: "pool3"
  pooling_param {
    pool: MAX
    kernel_size: 2
    stride: 2
  }
}
layer {
  name: "conv4_1"
  type: "Convolution"
  bottom: "pool3"
  top: "conv4_1"
  convolution_param {
    num_output: 256
    pad: 1
    kernel_size: 3
    weight_filler {
      type: "xavier"
      std: 0.01
    }
    bias_filler {
      type: "constant"
      value: 0.1
    }
  }
}
layer {
  name: "relu4_1"
  type: "ReLU"
  bottom: "conv4_1"
  top: "conv4_1"
}
layer {
  name: "conv4_2"
  type: "Convolution"
  bottom: "conv4_1"
  top: "conv4_2"
  convolution_param {
    num_output: 256
    pad: 1
    kernel_size: 3
    weight_filler {
      type: "xavier"
      std: 0.01
    }
    bias_filler {
      type: "constant"
      value: 0.1
    }
  }
}
layer {
  name: "relu4_2"
  type: "ReLU"
  bottom: "conv4_2"
  top: "conv4_2"
}
layer {
  name: "conv4_3"
  type: "Convolution"
  bottom: "conv4_2"
  top: "conv4_3"
  convolution_param {
    num_output: 256
    pad: 1
    kernel_size: 3
    weight_filler {
      type: "xavier"
      std: 0.01
    }
    bias_filler {
      type: "constant"
      value: 0.1
    }
  }
}
layer {
  name: "relu4_3"
  type: "ReLU"
  bottom: "conv4_3"
  top: "conv4_3"
}
layer {
  name: "pool4"
  type: "Pooling"
  bottom: "conv4_3"
  top: "pool4"
  pooling_param {
    pool: MAX
    kernel_size: 2
    stride: 2
  }
}
layer {
  name: "conv5_1"
  type: "Convolution"
  bottom: "pool4"
  top: "conv5_1"
  convolution_param {
    num_output: 256
    pad: 1
    kernel_size: 3
    weight_filler {
      type: "xavier"
      std: 0.01
    }
    bias_filler {
      type: "constant"
      value: 0.1
    }
  }
}
layer {
  name: "relu5_1"
  type: "ReLU"
  bottom: "conv5_1"
  top: "conv5_1"
}
layer {
  name: "conv5_2"
  type: "Convolution"
  bottom: "conv5_1"
  top: "conv5_2"
  convolution_param {
    num_output: 256
    pad: 1
    kernel_size: 3
    weight_filler {
      type: "xavier"
      std: 0.01
    }
    bias_filler {
      type: "constant"
      value: 0.1
    }
  }
}
layer {
  name: "relu5_2"
  type: "ReLU"
  bottom: "conv5_2"
  top: "conv5_2"
}
layer {
  name: "conv5_3"
  type: "Convolution"
  bottom: "conv5_2"
  top: "conv5_3"
  convolution_param {
    num_output: 256
    pad: 1
    kernel_size: 3
    weight_filler {
      type: "xavier"
      std: 0.01
    }
    bias_filler {
      type: "constant"
      value: 0.1
    }
  }
}
layer {
  name: "relu5_3"
  type: "ReLU"
  bottom: "conv5_3"
  top: "conv5_3"
}
layer {
  name: "pool5"
  type: "Pooling"
  bottom: "conv5_3"
  top: "pool5"
  pooling_param {
    pool: MAX
    kernel_size: 2
    stride: 2
  }
}
layer {
  name: "drop6"
  type: "Dropout"
  bottom: "pool5"
  top: "pool5"
  dropout_param {
    dropout_ratio: 0.5
  }
}
layer {
  name: "fc6"
  type: "InnerProduct"
  bottom: "pool5"
  top: "fc6"
  inner_product_param {
    num_output: 512
    weight_filler {
      type: "xavier"
      std: 0.01
    }
    bias_filler {
      type: "constant"
      value: 0.1
    }
  }
}
layer {
  name: "relu6"
  type: "ReLU"
  bottom: "fc6"
  top: "fc6"
}
layer {
  name: "fc7"
  type: "InnerProduct"
  bottom: "fc6"
  top: "fc7"
  inner_product_param {
    num_output: 2
    weight_filler {
      type: "xavier"
      std: 0.01
    }
    bias_filler {
      type: "constant"
      value: 0.1
    }
  }
}
layer {
  name: "loss"
  type: "SoftmaxWithLoss"
  bottom: "fc7"
  bottom: "label"
  top: "loss/loss"
}
layer {
  name: "accuracy/top1"
  type: "Accuracy"
  bottom: "fc7"
  bottom: "label"
  top: "accuracy@1"
  include {
    phase: TEST
  }
  accuracy_param {
    top_k: 1
  }
}
I0530 14:08:07.194686 11220 layer_factory.hpp:77] Creating layer data
I0530 14:08:07.198683 11220 db_lmdb.cpp:40] Opened lmdb val_lmdb
I0530 14:08:07.198683 11220 net.cpp:84] Creating Layer data
I0530 14:08:07.198683 11220 net.cpp:380] data -> data
I0530 14:08:07.198683 11220 net.cpp:380] data -> label
I0530 14:08:07.199698 11220 data_transformer.cpp:25] Loading mean file from: mean.binaryproto
I0530 14:08:07.199698 11220 data_layer.cpp:45] output data size: 30,1,64,64
I0530 14:08:07.201684 11220 net.cpp:122] Setting up data
I0530 14:08:07.201684 11220 net.cpp:129] Top shape: 30 1 64 64 (122880)
I0530 14:08:07.202694 11220 net.cpp:129] Top shape: 30 (30)
I0530 14:08:07.202694 11220 net.cpp:137] Memory required for data: 491640
I0530 14:08:07.203699 11220 layer_factory.hpp:77] Creating layer label_data_1_split
I0530 14:08:07.203699 11220 net.cpp:84] Creating Layer label_data_1_split
I0530 14:08:07.203699 11220 net.cpp:406] label_data_1_split <- label
I0530 14:08:07.204687 11220 net.cpp:380] label_data_1_split -> label_data_1_split_0
I0530 14:08:07.205687 11220 net.cpp:380] label_data_1_split -> label_data_1_split_1
I0530 14:08:07.205687 11220 net.cpp:122] Setting up label_data_1_split
I0530 14:08:07.205687 11220 net.cpp:129] Top shape: 30 (30)
I0530 14:08:07.206696 11220 net.cpp:129] Top shape: 30 (30)
I0530 14:08:07.206696 11220 net.cpp:137] Memory required for data: 491880
I0530 14:08:07.206696 11220 layer_factory.hpp:77] Creating layer conv1_1
I0530 14:08:07.207687 11220 net.cpp:84] Creating Layer conv1_1
I0530 14:08:07.207687 11220 net.cpp:406] conv1_1 <- data
I0530 14:08:07.207687 11220 net.cpp:380] conv1_1 -> conv1_1
I0530 14:08:07.208688 11220 net.cpp:122] Setting up conv1_1
I0530 14:08:07.208688 11220 net.cpp:129] Top shape: 30 64 64 64 (7864320)
I0530 14:08:07.208688 11220 net.cpp:137] Memory required for data: 31949160
I0530 14:08:07.208688 11220 layer_factory.hpp:77] Creating layer relu1_1
I0530 14:08:07.209687 11220 net.cpp:84] Creating Layer relu1_1
I0530 14:08:07.209687 11220 net.cpp:406] relu1_1 <- conv1_1
I0530 14:08:07.209687 11220 net.cpp:367] relu1_1 -> conv1_1 (in-place)
I0530 14:08:07.209687 11220 net.cpp:122] Setting up relu1_1
I0530 14:08:07.209687 11220 net.cpp:129] Top shape: 30 64 64 64 (7864320)
I0530 14:08:07.210687 11220 net.cpp:137] Memory required for data: 63406440
I0530 14:08:07.210687 11220 layer_factory.hpp:77] Creating layer conv1_2
I0530 14:08:07.210687 11220 net.cpp:84] Creating Layer conv1_2
I0530 14:08:07.210687 11220 net.cpp:406] conv1_2 <- conv1_1
I0530 14:08:07.211686 11220 net.cpp:380] conv1_2 -> conv1_2
I0530 14:08:07.211686 11220 net.cpp:122] Setting up conv1_2
I0530 14:08:07.211686 11220 net.cpp:129] Top shape: 30 128 64 64 (15728640)
I0530 14:08:07.212687 11220 net.cpp:137] Memory required for data: 126321000
I0530 14:08:07.212687 11220 layer_factory.hpp:77] Creating layer relu1_2
I0530 14:08:07.212687 11220 net.cpp:84] Creating Layer relu1_2
I0530 14:08:07.212687 11220 net.cpp:406] relu1_2 <- conv1_2
I0530 14:08:07.213687 11220 net.cpp:367] relu1_2 -> conv1_2 (in-place)
I0530 14:08:07.213687 11220 net.cpp:122] Setting up relu1_2
I0530 14:08:07.213687 11220 net.cpp:129] Top shape: 30 128 64 64 (15728640)
I0530 14:08:07.213687 11220 net.cpp:137] Memory required for data: 189235560
I0530 14:08:07.214687 11220 layer_factory.hpp:77] Creating layer pool1
I0530 14:08:07.215687 11220 net.cpp:84] Creating Layer pool1
I0530 14:08:07.215687 11220 net.cpp:406] pool1 <- conv1_2
I0530 14:08:07.216686 11220 net.cpp:380] pool1 -> pool1
I0530 14:08:07.216686 11220 net.cpp:122] Setting up pool1
I0530 14:08:07.216686 11220 net.cpp:129] Top shape: 30 128 32 32 (3932160)
I0530 14:08:07.216686 11220 net.cpp:137] Memory required for data: 204964200
I0530 14:08:07.217687 11220 layer_factory.hpp:77] Creating layer conv2_1
I0530 14:08:07.217687 11220 net.cpp:84] Creating Layer conv2_1
I0530 14:08:07.217687 11220 net.cpp:406] conv2_1 <- pool1
I0530 14:08:07.217687 11220 net.cpp:380] conv2_1 -> conv2_1
I0530 14:08:07.219686 11220 net.cpp:122] Setting up conv2_1
I0530 14:08:07.219686 11220 net.cpp:129] Top shape: 30 64 32 32 (1966080)
I0530 14:08:07.219686 11220 net.cpp:137] Memory required for data: 212828520
I0530 14:08:07.219686 11220 layer_factory.hpp:77] Creating layer relu2_1
I0530 14:08:07.220686 11220 net.cpp:84] Creating Layer relu2_1
I0530 14:08:07.220686 11220 net.cpp:406] relu2_1 <- conv2_1
I0530 14:08:07.220686 11220 net.cpp:367] relu2_1 -> conv2_1 (in-place)
I0530 14:08:07.220686 11220 net.cpp:122] Setting up relu2_1
I0530 14:08:07.220686 11220 net.cpp:129] Top shape: 30 64 32 32 (1966080)
I0530 14:08:07.221686 11220 net.cpp:137] Memory required for data: 220692840
I0530 14:08:07.221686 11220 layer_factory.hpp:77] Creating layer conv2_2
I0530 14:08:07.221686 11220 net.cpp:84] Creating Layer conv2_2
I0530 14:08:07.221686 11220 net.cpp:406] conv2_2 <- conv2_1
I0530 14:08:07.222687 11220 net.cpp:380] conv2_2 -> conv2_2
I0530 14:08:07.222687 11220 net.cpp:122] Setting up conv2_2
I0530 14:08:07.222687 11220 net.cpp:129] Top shape: 30 128 32 32 (3932160)
I0530 14:08:07.223687 11220 net.cpp:137] Memory required for data: 236421480
I0530 14:08:07.223687 11220 layer_factory.hpp:77] Creating layer relu2_2
I0530 14:08:07.223687 11220 net.cpp:84] Creating Layer relu2_2
I0530 14:08:07.223687 11220 net.cpp:406] relu2_2 <- conv2_2
I0530 14:08:07.224687 11220 net.cpp:367] relu2_2 -> conv2_2 (in-place)
I0530 14:08:07.225687 11220 net.cpp:122] Setting up relu2_2
I0530 14:08:07.226686 11220 net.cpp:129] Top shape: 30 128 32 32 (3932160)
I0530 14:08:07.226686 11220 net.cpp:137] Memory required for data: 252150120
I0530 14:08:07.226686 11220 layer_factory.hpp:77] Creating layer pool2
I0530 14:08:07.226686 11220 net.cpp:84] Creating Layer pool2
I0530 14:08:07.226686 11220 net.cpp:406] pool2 <- conv2_2
I0530 14:08:07.227686 11220 net.cpp:380] pool2 -> pool2
I0530 14:08:07.227686 11220 net.cpp:122] Setting up pool2
I0530 14:08:07.227686 11220 net.cpp:129] Top shape: 30 128 16 16 (983040)
I0530 14:08:07.227686 11220 net.cpp:137] Memory required for data: 256082280
I0530 14:08:07.228688 11220 layer_factory.hpp:77] Creating layer conv3_1
I0530 14:08:07.228688 11220 net.cpp:84] Creating Layer conv3_1
I0530 14:08:07.228688 11220 net.cpp:406] conv3_1 <- pool2
I0530 14:08:07.228688 11220 net.cpp:380] conv3_1 -> conv3_1
I0530 14:08:07.229686 11220 net.cpp:122] Setting up conv3_1
I0530 14:08:07.229686 11220 net.cpp:129] Top shape: 30 128 16 16 (983040)
I0530 14:08:07.230686 11220 net.cpp:137] Memory required for data: 260014440
I0530 14:08:07.230686 11220 layer_factory.hpp:77] Creating layer relu3_1
I0530 14:08:07.230686 11220 net.cpp:84] Creating Layer relu3_1
I0530 14:08:07.230686 11220 net.cpp:406] relu3_1 <- conv3_1
I0530 14:08:07.231688 11220 net.cpp:367] relu3_1 -> conv3_1 (in-place)
I0530 14:08:07.231688 11220 net.cpp:122] Setting up relu3_1
I0530 14:08:07.231688 11220 net.cpp:129] Top shape: 30 128 16 16 (983040)
I0530 14:08:07.231688 11220 net.cpp:137] Memory required for data: 263946600
I0530 14:08:07.232686 11220 layer_factory.hpp:77] Creating layer conv3_2
I0530 14:08:07.232686 11220 net.cpp:84] Creating Layer conv3_2
I0530 14:08:07.232686 11220 net.cpp:406] conv3_2 <- conv3_1
I0530 14:08:07.232686 11220 net.cpp:380] conv3_2 -> conv3_2
I0530 14:08:07.233687 11220 net.cpp:122] Setting up conv3_2
I0530 14:08:07.233687 11220 net.cpp:129] Top shape: 30 128 16 16 (983040)
I0530 14:08:07.234686 11220 net.cpp:137] Memory required for data: 267878760
I0530 14:08:07.235687 11220 layer_factory.hpp:77] Creating layer relu3_2
I0530 14:08:07.236685 11220 net.cpp:84] Creating Layer relu3_2
I0530 14:08:07.236685 11220 net.cpp:406] relu3_2 <- conv3_2
I0530 14:08:07.236685 11220 net.cpp:367] relu3_2 -> conv3_2 (in-place)
I0530 14:08:07.236685 11220 net.cpp:122] Setting up relu3_2
I0530 14:08:07.236685 11220 net.cpp:129] Top shape: 30 128 16 16 (983040)
I0530 14:08:07.237686 11220 net.cpp:137] Memory required for data: 271810920
I0530 14:08:07.237686 11220 layer_factory.hpp:77] Creating layer conv3_3
I0530 14:08:07.237686 11220 net.cpp:84] Creating Layer conv3_3
I0530 14:08:07.237686 11220 net.cpp:406] conv3_3 <- conv3_2
I0530 14:08:07.238687 11220 net.cpp:380] conv3_3 -> conv3_3
I0530 14:08:07.239686 11220 net.cpp:122] Setting up conv3_3
I0530 14:08:07.240684 11220 net.cpp:129] Top shape: 30 128 16 16 (983040)
I0530 14:08:07.240684 11220 net.cpp:137] Memory required for data: 275743080
I0530 14:08:07.240684 11220 layer_factory.hpp:77] Creating layer relu3_3
I0530 14:08:07.240684 11220 net.cpp:84] Creating Layer relu3_3
I0530 14:08:07.241688 11220 net.cpp:406] relu3_3 <- conv3_3
I0530 14:08:07.241688 11220 net.cpp:367] relu3_3 -> conv3_3 (in-place)
I0530 14:08:07.241688 11220 net.cpp:122] Setting up relu3_3
I0530 14:08:07.241688 11220 net.cpp:129] Top shape: 30 128 16 16 (983040)
I0530 14:08:07.241688 11220 net.cpp:137] Memory required for data: 279675240
I0530 14:08:07.242687 11220 layer_factory.hpp:77] Creating layer pool3
I0530 14:08:07.242687 11220 net.cpp:84] Creating Layer pool3
I0530 14:08:07.242687 11220 net.cpp:406] pool3 <- conv3_3
I0530 14:08:07.242687 11220 net.cpp:380] pool3 -> pool3
I0530 14:08:07.243687 11220 net.cpp:122] Setting up pool3
I0530 14:08:07.243687 11220 net.cpp:129] Top shape: 30 128 8 8 (245760)
I0530 14:08:07.243687 11220 net.cpp:137] Memory required for data: 280658280
I0530 14:08:07.243687 11220 layer_factory.hpp:77] Creating layer conv4_1
I0530 14:08:07.245685 11220 net.cpp:84] Creating Layer conv4_1
I0530 14:08:07.245685 11220 net.cpp:406] conv4_1 <- pool3
I0530 14:08:07.245685 11220 net.cpp:380] conv4_1 -> conv4_1
I0530 14:08:07.247685 11220 net.cpp:122] Setting up conv4_1
I0530 14:08:07.247685 11220 net.cpp:129] Top shape: 30 256 8 8 (491520)
I0530 14:08:07.247685 11220 net.cpp:137] Memory required for data: 282624360
I0530 14:08:07.248687 11220 layer_factory.hpp:77] Creating layer relu4_1
I0530 14:08:07.248687 11220 net.cpp:84] Creating Layer relu4_1
I0530 14:08:07.248687 11220 net.cpp:406] relu4_1 <- conv4_1
I0530 14:08:07.248687 11220 net.cpp:367] relu4_1 -> conv4_1 (in-place)
I0530 14:08:07.249687 11220 net.cpp:122] Setting up relu4_1
I0530 14:08:07.249687 11220 net.cpp:129] Top shape: 30 256 8 8 (491520)
I0530 14:08:07.249687 11220 net.cpp:137] Memory required for data: 284590440
I0530 14:08:07.249687 11220 layer_factory.hpp:77] Creating layer conv4_2
I0530 14:08:07.250687 11220 net.cpp:84] Creating Layer conv4_2
I0530 14:08:07.250687 11220 net.cpp:406] conv4_2 <- conv4_1
I0530 14:08:07.250687 11220 net.cpp:380] conv4_2 -> conv4_2
I0530 14:08:07.254684 11220 net.cpp:122] Setting up conv4_2
I0530 14:08:07.254684 11220 net.cpp:129] Top shape: 30 256 8 8 (491520)
I0530 14:08:07.255689 11220 net.cpp:137] Memory required for data: 286556520
I0530 14:08:07.255689 11220 layer_factory.hpp:77] Creating layer relu4_2
I0530 14:08:07.256696 11220 net.cpp:84] Creating Layer relu4_2
I0530 14:08:07.256696 11220 net.cpp:406] relu4_2 <- conv4_2
I0530 14:08:07.256696 11220 net.cpp:367] relu4_2 -> conv4_2 (in-place)
I0530 14:08:07.257686 11220 net.cpp:122] Setting up relu4_2
I0530 14:08:07.257686 11220 net.cpp:129] Top shape: 30 256 8 8 (491520)
I0530 14:08:07.257686 11220 net.cpp:137] Memory required for data: 288522600
I0530 14:08:07.258687 11220 layer_factory.hpp:77] Creating layer conv4_3
I0530 14:08:07.258687 11220 net.cpp:84] Creating Layer conv4_3
I0530 14:08:07.258687 11220 net.cpp:406] conv4_3 <- conv4_2
I0530 14:08:07.259686 11220 net.cpp:380] conv4_3 -> conv4_3
I0530 14:08:07.263684 11220 net.cpp:122] Setting up conv4_3
I0530 14:08:07.264686 11220 net.cpp:129] Top shape: 30 256 8 8 (491520)
I0530 14:08:07.264686 11220 net.cpp:137] Memory required for data: 290488680
I0530 14:08:07.264686 11220 layer_factory.hpp:77] Creating layer relu4_3
I0530 14:08:07.265699 11220 net.cpp:84] Creating Layer relu4_3
I0530 14:08:07.265699 11220 net.cpp:406] relu4_3 <- conv4_3
I0530 14:08:07.265699 11220 net.cpp:367] relu4_3 -> conv4_3 (in-place)
I0530 14:08:07.266687 11220 net.cpp:122] Setting up relu4_3
I0530 14:08:07.266687 11220 net.cpp:129] Top shape: 30 256 8 8 (491520)
I0530 14:08:07.266687 11220 net.cpp:137] Memory required for data: 292454760
I0530 14:08:07.267694 11220 layer_factory.hpp:77] Creating layer pool4
I0530 14:08:07.267694 11220 net.cpp:84] Creating Layer pool4
I0530 14:08:07.267694 11220 net.cpp:406] pool4 <- conv4_3
I0530 14:08:07.267694 11220 net.cpp:380] pool4 -> pool4
I0530 14:08:07.268687 11220 net.cpp:122] Setting up pool4
I0530 14:08:07.268687 11220 net.cpp:129] Top shape: 30 256 4 4 (122880)
I0530 14:08:07.268687 11220 net.cpp:137] Memory required for data: 292946280
I0530 14:08:07.268687 11220 layer_factory.hpp:77] Creating layer conv5_1
I0530 14:08:07.269686 11220 net.cpp:84] Creating Layer conv5_1
I0530 14:08:07.269686 11220 net.cpp:406] conv5_1 <- pool4
I0530 14:08:07.269686 11220 net.cpp:380] conv5_1 -> conv5_1
I0530 14:08:07.273684 11220 net.cpp:122] Setting up conv5_1
I0530 14:08:07.273684 11220 net.cpp:129] Top shape: 30 256 4 4 (122880)
I0530 14:08:07.274686 11220 net.cpp:137] Memory required for data: 293437800
I0530 14:08:07.274686 11220 layer_factory.hpp:77] Creating layer relu5_1
I0530 14:08:07.274686 11220 net.cpp:84] Creating Layer relu5_1
I0530 14:08:07.275691 11220 net.cpp:406] relu5_1 <- conv5_1
I0530 14:08:07.275691 11220 net.cpp:367] relu5_1 -> conv5_1 (in-place)
I0530 14:08:07.275691 11220 net.cpp:122] Setting up relu5_1
I0530 14:08:07.276687 11220 net.cpp:129] Top shape: 30 256 4 4 (122880)
I0530 14:08:07.276687 11220 net.cpp:137] Memory required for data: 293929320
I0530 14:08:07.276687 11220 layer_factory.hpp:77] Creating layer conv5_2
I0530 14:08:07.276687 11220 net.cpp:84] Creating Layer conv5_2
I0530 14:08:07.277686 11220 net.cpp:406] conv5_2 <- conv5_1
I0530 14:08:07.277686 11220 net.cpp:380] conv5_2 -> conv5_2
I0530 14:08:07.281683 11220 net.cpp:122] Setting up conv5_2
I0530 14:08:07.281683 11220 net.cpp:129] Top shape: 30 256 4 4 (122880)
I0530 14:08:07.281683 11220 net.cpp:137] Memory required for data: 294420840
I0530 14:08:07.281683 11220 layer_factory.hpp:77] Creating layer relu5_2
I0530 14:08:07.283685 11220 net.cpp:84] Creating Layer relu5_2
I0530 14:08:07.283685 11220 net.cpp:406] relu5_2 <- conv5_2
I0530 14:08:07.283685 11220 net.cpp:367] relu5_2 -> conv5_2 (in-place)
I0530 14:08:07.284687 11220 net.cpp:122] Setting up relu5_2
I0530 14:08:07.284687 11220 net.cpp:129] Top shape: 30 256 4 4 (122880)
I0530 14:08:07.284687 11220 net.cpp:137] Memory required for data: 294912360
I0530 14:08:07.284687 11220 layer_factory.hpp:77] Creating layer conv5_3
I0530 14:08:07.285687 11220 net.cpp:84] Creating Layer conv5_3
I0530 14:08:07.285687 11220 net.cpp:406] conv5_3 <- conv5_2
I0530 14:08:07.285687 11220 net.cpp:380] conv5_3 -> conv5_3
I0530 14:08:07.289683 11220 net.cpp:122] Setting up conv5_3
I0530 14:08:07.289683 11220 net.cpp:129] Top shape: 30 256 4 4 (122880)
I0530 14:08:07.290686 11220 net.cpp:137] Memory required for data: 295403880
I0530 14:08:07.290686 11220 layer_factory.hpp:77] Creating layer relu5_3
I0530 14:08:07.290686 11220 net.cpp:84] Creating Layer relu5_3
I0530 14:08:07.291694 11220 net.cpp:406] relu5_3 <- conv5_3
I0530 14:08:07.292686 11220 net.cpp:367] relu5_3 -> conv5_3 (in-place)
I0530 14:08:07.292686 11220 net.cpp:122] Setting up relu5_3
I0530 14:08:07.293687 11220 net.cpp:129] Top shape: 30 256 4 4 (122880)
I0530 14:08:07.293687 11220 net.cpp:137] Memory required for data: 295895400
I0530 14:08:07.293687 11220 layer_factory.hpp:77] Creating layer pool5
I0530 14:08:07.293687 11220 net.cpp:84] Creating Layer pool5
I0530 14:08:07.294687 11220 net.cpp:406] pool5 <- conv5_3
I0530 14:08:07.294687 11220 net.cpp:380] pool5 -> pool5
I0530 14:08:07.294687 11220 net.cpp:122] Setting up pool5
I0530 14:08:07.294687 11220 net.cpp:129] Top shape: 30 256 2 2 (30720)
I0530 14:08:07.295686 11220 net.cpp:137] Memory required for data: 296018280
I0530 14:08:07.295686 11220 layer_factory.hpp:77] Creating layer drop6
I0530 14:08:07.295686 11220 net.cpp:84] Creating Layer drop6
I0530 14:08:07.295686 11220 net.cpp:406] drop6 <- pool5
I0530 14:08:07.295686 11220 net.cpp:367] drop6 -> pool5 (in-place)
I0530 14:08:07.296686 11220 net.cpp:122] Setting up drop6
I0530 14:08:07.296686 11220 net.cpp:129] Top shape: 30 256 2 2 (30720)
I0530 14:08:07.296686 11220 net.cpp:137] Memory required for data: 296141160
I0530 14:08:07.296686 11220 layer_factory.hpp:77] Creating layer fc6
I0530 14:08:07.297688 11220 net.cpp:84] Creating Layer fc6
I0530 14:08:07.297688 11220 net.cpp:406] fc6 <- pool5
I0530 14:08:07.297688 11220 net.cpp:380] fc6 -> fc6
I0530 14:08:07.301684 11220 net.cpp:122] Setting up fc6
I0530 14:08:07.302685 11220 net.cpp:129] Top shape: 30 512 (15360)
I0530 14:08:07.302685 11220 net.cpp:137] Memory required for data: 296202600
I0530 14:08:07.302685 11220 layer_factory.hpp:77] Creating layer relu6
I0530 14:08:07.303686 11220 net.cpp:84] Creating Layer relu6
I0530 14:08:07.303686 11220 net.cpp:406] relu6 <- fc6
I0530 14:08:07.303686 11220 net.cpp:367] relu6 -> fc6 (in-place)
I0530 14:08:07.303686 11220 net.cpp:122] Setting up relu6
I0530 14:08:07.304687 11220 net.cpp:129] Top shape: 30 512 (15360)
I0530 14:08:07.304687 11220 net.cpp:137] Memory required for data: 296264040
I0530 14:08:07.304687 11220 layer_factory.hpp:77] Creating layer fc7
I0530 14:08:07.305686 11220 net.cpp:84] Creating Layer fc7
I0530 14:08:07.305686 11220 net.cpp:406] fc7 <- fc6
I0530 14:08:07.305686 11220 net.cpp:380] fc7 -> fc7
I0530 14:08:07.305686 11220 net.cpp:122] Setting up fc7
I0530 14:08:07.305686 11220 net.cpp:129] Top shape: 30 2 (60)
I0530 14:08:07.306686 11220 net.cpp:137] Memory required for data: 296264280
I0530 14:08:07.306686 11220 layer_factory.hpp:77] Creating layer fc7_fc7_0_split
I0530 14:08:07.306686 11220 net.cpp:84] Creating Layer fc7_fc7_0_split
I0530 14:08:07.306686 11220 net.cpp:406] fc7_fc7_0_split <- fc7
I0530 14:08:07.307687 11220 net.cpp:380] fc7_fc7_0_split -> fc7_fc7_0_split_0
I0530 14:08:07.307687 11220 net.cpp:380] fc7_fc7_0_split -> fc7_fc7_0_split_1
I0530 14:08:07.307687 11220 net.cpp:122] Setting up fc7_fc7_0_split
I0530 14:08:07.307687 11220 net.cpp:129] Top shape: 30 2 (60)
I0530 14:08:07.308688 11220 net.cpp:129] Top shape: 30 2 (60)
I0530 14:08:07.308688 11220 net.cpp:137] Memory required for data: 296264760
I0530 14:08:07.308688 11220 layer_factory.hpp:77] Creating layer loss
I0530 14:08:07.308688 11220 net.cpp:84] Creating Layer loss
I0530 14:08:07.308688 11220 net.cpp:406] loss <- fc7_fc7_0_split_0
I0530 14:08:07.309687 11220 net.cpp:406] loss <- label_data_1_split_0
I0530 14:08:07.309687 11220 net.cpp:380] loss -> loss/loss
…
