…
I0530 14:20:26.061117  6908 upgrade_proto.cpp:67] Attempting to upgrade input file specified using deprecated input fields: ./deploy.prototxt
I0530 14:20:26.061117  6908 upgrade_proto.cpp:70] Successfully upgraded file specified using deprecated input fields.
W0530 14:20:26.061117  6908 upgrade_proto.cpp:72] Note that future Caffe releases will only support input layers and not input fields.
I0530 14:20:26.062089  6908 net.cpp:51] Initializing net from parameters: 
state {
  phase: TEST
  level: 0
}
layer {
  name: "input"
  type: "Input"
  top: "data"
  input_param {
    shape {
      dim: 1
      dim: 1
      dim: 64
      dim: 64
    }
  }
}
layer {
  name: "conv1_1"
  type: "Convolution"
  bottom: "data"
  top: "conv1_1"
  convolution_param {
    num_output: 64
    pad: 1
    kernel_size: 3
    weight_filler {
      type: "xavier"
      std: 0.01
    }
    bias_filler {
      type: "constant"
      value: 0.1
    }
  }
}
layer {
  name: "relu1_1"
  type: "ReLU"
  bottom: "conv1_1"
  top: "conv1_1"
}
layer {
  name: "conv1_2"
  type: "Convolution"
  bottom: "conv1_1"
  top: "conv1_2"
  convolution_param {
    num_output: 128
    pad: 1
    kernel_size: 3
    weight_filler {
      type: "xavier"
      std: 0.01
    }
    bias_filler {
      type: "constant"
      value: 0.1
    }
  }
}
layer {
  name: "relu1_2"
  type: "ReLU"
  bottom: "conv1_2"
  top: "conv1_2"
}
layer {
  name: "pool1"
  type: "Pooling"
  bottom: "conv1_2"
  top: "pool1"
  pooling_param {
    pool: MAX
    kernel_size: 2
    stride: 2
  }
}
layer {
  name: "conv2_1"
  type: "Convolution"
  bottom: "pool1"
  top: "conv2_1"
  convolution_param {
    num_output: 64
    pad: 1
    kernel_size: 3
    weight_filler {
      type: "xavier"
      std: 0.01
    }
    bias_filler {
      type: "constant"
      value: 0.1
    }
  }
}
layer {
  name: "relu2_1"
  type: "ReLU"
  bottom: "conv2_1"
  top: "conv2_1"
}
layer {
  name: "conv2_2"
  type: "Convolution"
  bottom: "conv2_1"
  top: "conv2_2"
  convolution_param {
    num_output: 128
    pad: 1
    kernel_size: 3
    weight_filler {
      type: "xavier"
      std: 0.01
    }
    bias_filler {
      type: "constant"
      value: 0.1
    }
  }
}
layer {
  name: "relu2_2"
  type: "ReLU"
  bottom: "conv2_2"
  top: "conv2_2"
}
layer {
  name: "pool2"
  type: "Pooling"
  bottom: "conv2_2"
  top: "pool2"
  pooling_param {
    pool: MAX
    kernel_size: 2
    stride: 2
  }
}
layer {
  name: "conv3_1"
  type: "Convolution"
  bottom: "pool2"
  top: "conv3_1"
  convolution_param {
    num_output: 128
    pad: 1
    kernel_size: 3
    weight_filler {
      type: "xavier"
      std: 0.01
    }
    bias_filler {
      type: "constant"
      value: 0.1
    }
  }
}
layer {
  name: "relu3_1"
  type: "ReLU"
  bottom: "conv3_1"
  top: "conv3_1"
}
layer {
  name: "conv3_2"
  type: "Convolution"
  bottom: "conv3_1"
  top: "conv3_2"
  convolution_param {
    num_output: 128
    pad: 1
    kernel_size: 3
    weight_filler {
      type: "xavier"
      std: 0.01
    }
    bias_filler {
      type: "constant"
      value: 0.1
    }
  }
}
layer {
  name: "relu3_2"
  type: "ReLU"
  bottom: "conv3_2"
  top: "conv3_2"
}
layer {
  name: "conv3_3"
  type: "Convolution"
  bottom: "conv3_2"
  top: "conv3_3"
  convolution_param {
    num_output: 128
    pad: 1
    kernel_size: 3
    weight_filler {
      type: "xavier"
      std: 0.01
    }
    bias_filler {
      type: "constant"
      value: 0.1
    }
  }
}
layer {
  name: "relu3_3"
  type: "ReLU"
  bottom: "conv3_3"
  top: "conv3_3"
}
layer {
  name: "pool3"
  type: "Pooling"
  bottom: "conv3_3"
  top: "pool3"
  pooling_param {
    pool: MAX
    kernel_size: 2
    stride: 2
  }
}
layer {
  name: "conv4_1"
  type: "Convolution"
  bottom: "pool3"
  top: "conv4_1"
  convolution_param {
    num_output: 256
    pad: 1
    kernel_size: 3
    weight_filler {
      type: "xavier"
      std: 0.01
    }
    bias_filler {
      type: "constant"
      value: 0.1
    }
  }
}
layer {
  name: "relu4_1"
  type: "ReLU"
  bottom: "conv4_1"
  top: "conv4_1"
}
layer {
  name: "conv4_2"
  type: "Convolution"
  bottom: "conv4_1"
  top: "conv4_2"
  convolution_param {
    num_output: 256
    pad: 1
    kernel_size: 3
    weight_filler {
      type: "xavier"
      std: 0.01
    }
    bias_filler {
      type: "constant"
      value: 0.1
    }
  }
}
layer {
  name: "relu4_2"
  type: "ReLU"
  bottom: "conv4_2"
  top: "conv4_2"
}
layer {
  name: "conv4_3"
  type: "Convolution"
  bottom: "conv4_2"
  top: "conv4_3"
  convolution_param {
    num_output: 256
    pad: 1
    kernel_size: 3
    weight_filler {
      type: "xavier"
      std: 0.01
    }
    bias_filler {
      type: "constant"
      value: 0.1
    }
  }
}
layer {
  name: "relu4_3"
  type: "ReLU"
  bottom: "conv4_3"
  top: "conv4_3"
}
layer {
  name: "pool4"
  type: "Pooling"
  bottom: "conv4_3"
  top: "pool4"
  pooling_param {
    pool: MAX
    kernel_size: 2
    stride: 2
  }
}
layer {
  name: "conv5_1"
  type: "Convolution"
  bottom: "pool4"
  top: "conv5_1"
  convolution_param {
    num_output: 256
    pad: 1
    kernel_size: 3
    weight_filler {
      type: "xavier"
      std: 0.01
    }
    bias_filler {
      type: "constant"
      value: 0.1
    }
  }
}
layer {
  name: "relu5_1"
  type: "ReLU"
  bottom: "conv5_1"
  top: "conv5_1"
}
layer {
  name: "conv5_2"
  type: "Convolution"
  bottom: "conv5_1"
  top: "conv5_2"
  convolution_param {
    num_output: 256
    pad: 1
    kernel_size: 3
    weight_filler {
      type: "xavier"
      std: 0.01
    }
    bias_filler {
      type: "constant"
      value: 0.1
    }
  }
}
layer {
  name: "relu5_2"
  type: "ReLU"
  bottom: "conv5_2"
  top: "conv5_2"
}
layer {
  name: "conv5_3"
  type: "Convolution"
  bottom: "conv5_2"
  top: "conv5_3"
  convolution_param {
    num_output: 256
    pad: 1
    kernel_size: 3
    weight_filler {
      type: "xavier"
      std: 0.01
    }
    bias_filler {
      type: "constant"
      value: 0.1
    }
  }
}
layer {
  name: "relu5_3"
  type: "ReLU"
  bottom: "conv5_3"
  top: "conv5_3"
}
layer {
  name: "pool5"
  type: "Pooling"
  bottom: "conv5_3"
  top: "pool5"
  pooling_param {
    pool: MAX
    kernel_size: 2
    stride: 2
  }
}
layer {
  name: "drop6"
  type: "Dropout"
  bottom: "pool5"
  top: "pool5"
  dropout_param {
    dropout_ratio: 0.5
  }
}
layer {
  name: "fc6"
  type: "InnerProduct"
  bottom: "pool5"
  top: "fc6"
  inner_product_param {
    num_output: 512
    weight_filler {
      type: "xavier"
      std: 0.01
    }
    bias_filler {
      type: "constant"
      value: 0.1
    }
  }
}
layer {
  name: "relu6"
  type: "ReLU"
  bottom: "fc6"
  top: "fc6"
}
layer {
  name: "fc7"
  type: "InnerProduct"
  bottom: "fc6"
  top: "fc7"
  inner_product_param {
    num_output: 2
    weight_filler {
      type: "xavier"
      std: 0.01
    }
    bias_filler {
      type: "constant"
      value: 0.1
    }
  }
}
layer {
  name: "prob"
  type: "Softmax"
  bottom: "fc7"
  top: "prob"
}
I0530 14:20:26.062850  6908 layer_factory.hpp:77] Creating layer input
I0530 14:20:26.062850  6908 net.cpp:84] Creating Layer input
I0530 14:20:26.062850  6908 net.cpp:380] input -> data
I0530 14:20:26.116853  6908 net.cpp:122] Setting up input
I0530 14:20:26.116853  6908 net.cpp:129] Top shape: 1 1 64 64 (4096)
I0530 14:20:26.116853  6908 net.cpp:137] Memory required for data: 16384
I0530 14:20:26.116853  6908 layer_factory.hpp:77] Creating layer conv1_1
I0530 14:20:26.116853  6908 net.cpp:84] Creating Layer conv1_1
I0530 14:20:26.116853  6908 net.cpp:406] conv1_1 <- data
I0530 14:20:26.116853  6908 net.cpp:380] conv1_1 -> conv1_1
I0530 14:20:26.118880  6908 net.cpp:122] Setting up conv1_1
I0530 14:20:26.118880  6908 net.cpp:129] Top shape: 1 64 64 64 (262144)
I0530 14:20:26.118880  6908 net.cpp:137] Memory required for data: 1064960
I0530 14:20:26.118880  6908 layer_factory.hpp:77] Creating layer relu1_1
I0530 14:20:26.118880  6908 net.cpp:84] Creating Layer relu1_1
I0530 14:20:26.118880  6908 net.cpp:406] relu1_1 <- conv1_1
I0530 14:20:26.118880  6908 net.cpp:367] relu1_1 -> conv1_1 (in-place)
I0530 14:20:26.118880  6908 net.cpp:122] Setting up relu1_1
I0530 14:20:26.118880  6908 net.cpp:129] Top shape: 1 64 64 64 (262144)
I0530 14:20:26.118880  6908 net.cpp:137] Memory required for data: 2113536
I0530 14:20:26.118880  6908 layer_factory.hpp:77] Creating layer conv1_2
I0530 14:20:26.118880  6908 net.cpp:84] Creating Layer conv1_2
I0530 14:20:26.118880  6908 net.cpp:406] conv1_2 <- conv1_1
I0530 14:20:26.118880  6908 net.cpp:380] conv1_2 -> conv1_2
I0530 14:20:26.119877  6908 net.cpp:122] Setting up conv1_2
I0530 14:20:26.119877  6908 net.cpp:129] Top shape: 1 128 64 64 (524288)
I0530 14:20:26.119877  6908 net.cpp:137] Memory required for data: 4210688
I0530 14:20:26.119877  6908 layer_factory.hpp:77] Creating layer relu1_2
I0530 14:20:26.119877  6908 net.cpp:84] Creating Layer relu1_2
I0530 14:20:26.119877  6908 net.cpp:406] relu1_2 <- conv1_2
I0530 14:20:26.119877  6908 net.cpp:367] relu1_2 -> conv1_2 (in-place)
I0530 14:20:26.119877  6908 net.cpp:122] Setting up relu1_2
I0530 14:20:26.119877  6908 net.cpp:129] Top shape: 1 128 64 64 (524288)
I0530 14:20:26.119877  6908 net.cpp:137] Memory required for data: 6307840
I0530 14:20:26.119877  6908 layer_factory.hpp:77] Creating layer pool1
I0530 14:20:26.119877  6908 net.cpp:84] Creating Layer pool1
I0530 14:20:26.119877  6908 net.cpp:406] pool1 <- conv1_2
I0530 14:20:26.119877  6908 net.cpp:380] pool1 -> pool1
I0530 14:20:26.119877  6908 net.cpp:122] Setting up pool1
I0530 14:20:26.119877  6908 net.cpp:129] Top shape: 1 128 32 32 (131072)
I0530 14:20:26.119877  6908 net.cpp:137] Memory required for data: 6832128
I0530 14:20:26.119877  6908 layer_factory.hpp:77] Creating layer conv2_1
I0530 14:20:26.119877  6908 net.cpp:84] Creating Layer conv2_1
I0530 14:20:26.119877  6908 net.cpp:406] conv2_1 <- pool1
I0530 14:20:26.119877  6908 net.cpp:380] conv2_1 -> conv2_1
I0530 14:20:26.120877  6908 net.cpp:122] Setting up conv2_1
I0530 14:20:26.120877  6908 net.cpp:129] Top shape: 1 64 32 32 (65536)
I0530 14:20:26.120877  6908 net.cpp:137] Memory required for data: 7094272
I0530 14:20:26.120877  6908 layer_factory.hpp:77] Creating layer relu2_1
I0530 14:20:26.120877  6908 net.cpp:84] Creating Layer relu2_1
I0530 14:20:26.120877  6908 net.cpp:406] relu2_1 <- conv2_1
I0530 14:20:26.120877  6908 net.cpp:367] relu2_1 -> conv2_1 (in-place)
I0530 14:20:26.120877  6908 net.cpp:122] Setting up relu2_1
I0530 14:20:26.120877  6908 net.cpp:129] Top shape: 1 64 32 32 (65536)
I0530 14:20:26.120877  6908 net.cpp:137] Memory required for data: 7356416
I0530 14:20:26.120877  6908 layer_factory.hpp:77] Creating layer conv2_2
I0530 14:20:26.120877  6908 net.cpp:84] Creating Layer conv2_2
I0530 14:20:26.120877  6908 net.cpp:406] conv2_2 <- conv2_1
I0530 14:20:26.120877  6908 net.cpp:380] conv2_2 -> conv2_2
I0530 14:20:26.120877  6908 net.cpp:122] Setting up conv2_2
I0530 14:20:26.120877  6908 net.cpp:129] Top shape: 1 128 32 32 (131072)
I0530 14:20:26.120877  6908 net.cpp:137] Memory required for data: 7880704
I0530 14:20:26.120877  6908 layer_factory.hpp:77] Creating layer relu2_2
I0530 14:20:26.120877  6908 net.cpp:84] Creating Layer relu2_2
I0530 14:20:26.120877  6908 net.cpp:406] relu2_2 <- conv2_2
I0530 14:20:26.120877  6908 net.cpp:367] relu2_2 -> conv2_2 (in-place)
I0530 14:20:26.120877  6908 net.cpp:122] Setting up relu2_2
I0530 14:20:26.120877  6908 net.cpp:129] Top shape: 1 128 32 32 (131072)
I0530 14:20:26.120877  6908 net.cpp:137] Memory required for data: 8404992
I0530 14:20:26.120877  6908 layer_factory.hpp:77] Creating layer pool2
I0530 14:20:26.120877  6908 net.cpp:84] Creating Layer pool2
I0530 14:20:26.120877  6908 net.cpp:406] pool2 <- conv2_2
I0530 14:20:26.120877  6908 net.cpp:380] pool2 -> pool2
I0530 14:20:26.121876  6908 net.cpp:122] Setting up pool2
I0530 14:20:26.121876  6908 net.cpp:129] Top shape: 1 128 16 16 (32768)
I0530 14:20:26.121876  6908 net.cpp:137] Memory required for data: 8536064
I0530 14:20:26.121876  6908 layer_factory.hpp:77] Creating layer conv3_1
I0530 14:20:26.121876  6908 net.cpp:84] Creating Layer conv3_1
I0530 14:20:26.121876  6908 net.cpp:406] conv3_1 <- pool2
I0530 14:20:26.121876  6908 net.cpp:380] conv3_1 -> conv3_1
I0530 14:20:26.121876  6908 net.cpp:122] Setting up conv3_1
I0530 14:20:26.121876  6908 net.cpp:129] Top shape: 1 128 16 16 (32768)
I0530 14:20:26.121876  6908 net.cpp:137] Memory required for data: 8667136
I0530 14:20:26.121876  6908 layer_factory.hpp:77] Creating layer relu3_1
I0530 14:20:26.121876  6908 net.cpp:84] Creating Layer relu3_1
I0530 14:20:26.121876  6908 net.cpp:406] relu3_1 <- conv3_1
I0530 14:20:26.121876  6908 net.cpp:367] relu3_1 -> conv3_1 (in-place)
I0530 14:20:26.121876  6908 net.cpp:122] Setting up relu3_1
I0530 14:20:26.121876  6908 net.cpp:129] Top shape: 1 128 16 16 (32768)
I0530 14:20:26.121876  6908 net.cpp:137] Memory required for data: 8798208
I0530 14:20:26.121876  6908 layer_factory.hpp:77] Creating layer conv3_2
I0530 14:20:26.121876  6908 net.cpp:84] Creating Layer conv3_2
I0530 14:20:26.121876  6908 net.cpp:406] conv3_2 <- conv3_1
I0530 14:20:26.121876  6908 net.cpp:380] conv3_2 -> conv3_2
I0530 14:20:26.122876  6908 net.cpp:122] Setting up conv3_2
I0530 14:20:26.122876  6908 net.cpp:129] Top shape: 1 128 16 16 (32768)
I0530 14:20:26.122876  6908 net.cpp:137] Memory required for data: 8929280
I0530 14:20:26.122876  6908 layer_factory.hpp:77] Creating layer relu3_2
I0530 14:20:26.122876  6908 net.cpp:84] Creating Layer relu3_2
I0530 14:20:26.122876  6908 net.cpp:406] relu3_2 <- conv3_2
I0530 14:20:26.122876  6908 net.cpp:367] relu3_2 -> conv3_2 (in-place)
I0530 14:20:26.122876  6908 net.cpp:122] Setting up relu3_2
I0530 14:20:26.122876  6908 net.cpp:129] Top shape: 1 128 16 16 (32768)
I0530 14:20:26.122876  6908 net.cpp:137] Memory required for data: 9060352
I0530 14:20:26.122876  6908 layer_factory.hpp:77] Creating layer conv3_3
I0530 14:20:26.122876  6908 net.cpp:84] Creating Layer conv3_3
I0530 14:20:26.122876  6908 net.cpp:406] conv3_3 <- conv3_2
I0530 14:20:26.122876  6908 net.cpp:380] conv3_3 -> conv3_3
I0530 14:20:26.124877  6908 net.cpp:122] Setting up conv3_3
I0530 14:20:26.124877  6908 net.cpp:129] Top shape: 1 128 16 16 (32768)
I0530 14:20:26.124877  6908 net.cpp:137] Memory required for data: 9191424
I0530 14:20:26.124877  6908 layer_factory.hpp:77] Creating layer relu3_3
I0530 14:20:26.124877  6908 net.cpp:84] Creating Layer relu3_3
I0530 14:20:26.124877  6908 net.cpp:406] relu3_3 <- conv3_3
I0530 14:20:26.124877  6908 net.cpp:367] relu3_3 -> conv3_3 (in-place)
I0530 14:20:26.124877  6908 net.cpp:122] Setting up relu3_3
I0530 14:20:26.124877  6908 net.cpp:129] Top shape: 1 128 16 16 (32768)
I0530 14:20:26.124877  6908 net.cpp:137] Memory required for data: 9322496
I0530 14:20:26.124877  6908 layer_factory.hpp:77] Creating layer pool3
I0530 14:20:26.124877  6908 net.cpp:84] Creating Layer pool3
I0530 14:20:26.124877  6908 net.cpp:406] pool3 <- conv3_3
I0530 14:20:26.124877  6908 net.cpp:380] pool3 -> pool3
I0530 14:20:26.124877  6908 net.cpp:122] Setting up pool3
I0530 14:20:26.124877  6908 net.cpp:129] Top shape: 1 128 8 8 (8192)
I0530 14:20:26.124877  6908 net.cpp:137] Memory required for data: 9355264
I0530 14:20:26.124877  6908 layer_factory.hpp:77] Creating layer conv4_1
I0530 14:20:26.124877  6908 net.cpp:84] Creating Layer conv4_1
I0530 14:20:26.124877  6908 net.cpp:406] conv4_1 <- pool3
I0530 14:20:26.124877  6908 net.cpp:380] conv4_1 -> conv4_1
I0530 14:20:26.125874  6908 net.cpp:122] Setting up conv4_1
I0530 14:20:26.125874  6908 net.cpp:129] Top shape: 1 256 8 8 (16384)
I0530 14:20:26.125874  6908 net.cpp:137] Memory required for data: 9420800
I0530 14:20:26.125874  6908 layer_factory.hpp:77] Creating layer relu4_1
I0530 14:20:26.125874  6908 net.cpp:84] Creating Layer relu4_1
I0530 14:20:26.125874  6908 net.cpp:406] relu4_1 <- conv4_1
I0530 14:20:26.125874  6908 net.cpp:367] relu4_1 -> conv4_1 (in-place)
I0530 14:20:26.125874  6908 net.cpp:122] Setting up relu4_1
I0530 14:20:26.125874  6908 net.cpp:129] Top shape: 1 256 8 8 (16384)
I0530 14:20:26.125874  6908 net.cpp:137] Memory required for data: 9486336
I0530 14:20:26.125874  6908 layer_factory.hpp:77] Creating layer conv4_2
I0530 14:20:26.125874  6908 net.cpp:84] Creating Layer conv4_2
I0530 14:20:26.125874  6908 net.cpp:406] conv4_2 <- conv4_1
I0530 14:20:26.125874  6908 net.cpp:380] conv4_2 -> conv4_2
I0530 14:20:26.129881  6908 net.cpp:122] Setting up conv4_2
I0530 14:20:26.129881  6908 net.cpp:129] Top shape: 1 256 8 8 (16384)
I0530 14:20:26.129881  6908 net.cpp:137] Memory required for data: 9551872
I0530 14:20:26.129881  6908 layer_factory.hpp:77] Creating layer relu4_2
I0530 14:20:26.129881  6908 net.cpp:84] Creating Layer relu4_2
I0530 14:20:26.129881  6908 net.cpp:406] relu4_2 <- conv4_2
I0530 14:20:26.129881  6908 net.cpp:367] relu4_2 -> conv4_2 (in-place)
I0530 14:20:26.129881  6908 net.cpp:122] Setting up relu4_2
I0530 14:20:26.129881  6908 net.cpp:129] Top shape: 1 256 8 8 (16384)
I0530 14:20:26.129881  6908 net.cpp:137] Memory required for data: 9617408
I0530 14:20:26.129881  6908 layer_factory.hpp:77] Creating layer conv4_3
I0530 14:20:26.129881  6908 net.cpp:84] Creating Layer conv4_3
I0530 14:20:26.129881  6908 net.cpp:406] conv4_3 <- conv4_2
I0530 14:20:26.129881  6908 net.cpp:380] conv4_3 -> conv4_3
I0530 14:20:26.133882  6908 net.cpp:122] Setting up conv4_3
I0530 14:20:26.133882  6908 net.cpp:129] Top shape: 1 256 8 8 (16384)
I0530 14:20:26.133882  6908 net.cpp:137] Memory required for data: 9682944
I0530 14:20:26.133882  6908 layer_factory.hpp:77] Creating layer relu4_3
I0530 14:20:26.133882  6908 net.cpp:84] Creating Layer relu4_3
I0530 14:20:26.133882  6908 net.cpp:406] relu4_3 <- conv4_3
I0530 14:20:26.133882  6908 net.cpp:367] relu4_3 -> conv4_3 (in-place)
I0530 14:20:26.133882  6908 net.cpp:122] Setting up relu4_3
I0530 14:20:26.133882  6908 net.cpp:129] Top shape: 1 256 8 8 (16384)
I0530 14:20:26.133882  6908 net.cpp:137] Memory required for data: 9748480
I0530 14:20:26.133882  6908 layer_factory.hpp:77] Creating layer pool4
I0530 14:20:26.133882  6908 net.cpp:84] Creating Layer pool4
I0530 14:20:26.133882  6908 net.cpp:406] pool4 <- conv4_3
I0530 14:20:26.133882  6908 net.cpp:380] pool4 -> pool4
I0530 14:20:26.133882  6908 net.cpp:122] Setting up pool4
I0530 14:20:26.133882  6908 net.cpp:129] Top shape: 1 256 4 4 (4096)
I0530 14:20:26.133882  6908 net.cpp:137] Memory required for data: 9764864
I0530 14:20:26.133882  6908 layer_factory.hpp:77] Creating layer conv5_1
I0530 14:20:26.133882  6908 net.cpp:84] Creating Layer conv5_1
I0530 14:20:26.133882  6908 net.cpp:406] conv5_1 <- pool4
I0530 14:20:26.133882  6908 net.cpp:380] conv5_1 -> conv5_1
I0530 14:20:26.137881  6908 net.cpp:122] Setting up conv5_1
I0530 14:20:26.137881  6908 net.cpp:129] Top shape: 1 256 4 4 (4096)
I0530 14:20:26.137881  6908 net.cpp:137] Memory required for data: 9781248
I0530 14:20:26.137881  6908 layer_factory.hpp:77] Creating layer relu5_1
I0530 14:20:26.137881  6908 net.cpp:84] Creating Layer relu5_1
I0530 14:20:26.137881  6908 net.cpp:406] relu5_1 <- conv5_1
I0530 14:20:26.137881  6908 net.cpp:367] relu5_1 -> conv5_1 (in-place)
I0530 14:20:26.137881  6908 net.cpp:122] Setting up relu5_1
I0530 14:20:26.137881  6908 net.cpp:129] Top shape: 1 256 4 4 (4096)
I0530 14:20:26.137881  6908 net.cpp:137] Memory required for data: 9797632
I0530 14:20:26.137881  6908 layer_factory.hpp:77] Creating layer conv5_2
I0530 14:20:26.137881  6908 net.cpp:84] Creating Layer conv5_2
I0530 14:20:26.137881  6908 net.cpp:406] conv5_2 <- conv5_1
I0530 14:20:26.137881  6908 net.cpp:380] conv5_2 -> conv5_2
I0530 14:20:26.140883  6908 net.cpp:122] Setting up conv5_2
I0530 14:20:26.140883  6908 net.cpp:129] Top shape: 1 256 4 4 (4096)
I0530 14:20:26.140883  6908 net.cpp:137] Memory required for data: 9814016
I0530 14:20:26.140883  6908 layer_factory.hpp:77] Creating layer relu5_2
I0530 14:20:26.140883  6908 net.cpp:84] Creating Layer relu5_2
I0530 14:20:26.140883  6908 net.cpp:406] relu5_2 <- conv5_2
I0530 14:20:26.140883  6908 net.cpp:367] relu5_2 -> conv5_2 (in-place)
I0530 14:20:26.140883  6908 net.cpp:122] Setting up relu5_2
I0530 14:20:26.140883  6908 net.cpp:129] Top shape: 1 256 4 4 (4096)
I0530 14:20:26.140883  6908 net.cpp:137] Memory required for data: 9830400
I0530 14:20:26.140883  6908 layer_factory.hpp:77] Creating layer conv5_3
I0530 14:20:26.140883  6908 net.cpp:84] Creating Layer conv5_3
I0530 14:20:26.140883  6908 net.cpp:406] conv5_3 <- conv5_2
I0530 14:20:26.140883  6908 net.cpp:380] conv5_3 -> conv5_3
I0530 14:20:26.144882  6908 net.cpp:122] Setting up conv5_3
I0530 14:20:26.144882  6908 net.cpp:129] Top shape: 1 256 4 4 (4096)
I0530 14:20:26.144882  6908 net.cpp:137] Memory required for data: 9846784
I0530 14:20:26.144882  6908 layer_factory.hpp:77] Creating layer relu5_3
I0530 14:20:26.144882  6908 net.cpp:84] Creating Layer relu5_3
I0530 14:20:26.144882  6908 net.cpp:406] relu5_3 <- conv5_3
I0530 14:20:26.144882  6908 net.cpp:367] relu5_3 -> conv5_3 (in-place)
I0530 14:20:26.144882  6908 net.cpp:122] Setting up relu5_3
I0530 14:20:26.144882  6908 net.cpp:129] Top shape: 1 256 4 4 (4096)
I0530 14:20:26.144882  6908 net.cpp:137] Memory required for data: 9863168
I0530 14:20:26.144882  6908 layer_factory.hpp:77] Creating layer pool5
I0530 14:20:26.144882  6908 net.cpp:84] Creating Layer pool5
I0530 14:20:26.144882  6908 net.cpp:406] pool5 <- conv5_3
I0530 14:20:26.144882  6908 net.cpp:380] pool5 -> pool5
I0530 14:20:26.144882  6908 net.cpp:122] Setting up pool5
I0530 14:20:26.144882  6908 net.cpp:129] Top shape: 1 256 2 2 (1024)
I0530 14:20:26.144882  6908 net.cpp:137] Memory required for data: 9867264
I0530 14:20:26.144882  6908 layer_factory.hpp:77] Creating layer drop6
I0530 14:20:26.144882  6908 net.cpp:84] Creating Layer drop6
I0530 14:20:26.144882  6908 net.cpp:406] drop6 <- pool5
I0530 14:20:26.144882  6908 net.cpp:367] drop6 -> pool5 (in-place)
I0530 14:20:26.144882  6908 net.cpp:122] Setting up drop6
I0530 14:20:26.144882  6908 net.cpp:129] Top shape: 1 256 2 2 (1024)
I0530 14:20:26.144882  6908 net.cpp:137] Memory required for data: 9871360
I0530 14:20:26.144882  6908 layer_factory.hpp:77] Creating layer fc6
I0530 14:20:26.144882  6908 net.cpp:84] Creating Layer fc6
I0530 14:20:26.144882  6908 net.cpp:406] fc6 <- pool5
I0530 14:20:26.144882  6908 net.cpp:380] fc6 -> fc6
I0530 14:20:26.148875  6908 net.cpp:122] Setting up fc6
I0530 14:20:26.148875  6908 net.cpp:129] Top shape: 1 512 (512)
I0530 14:20:26.148875  6908 net.cpp:137] Memory required for data: 9873408
I0530 14:20:26.148875  6908 layer_factory.hpp:77] Creating layer relu6
I0530 14:20:26.148875  6908 net.cpp:84] Creating Layer relu6
I0530 14:20:26.148875  6908 net.cpp:406] relu6 <- fc6
I0530 14:20:26.148875  6908 net.cpp:367] relu6 -> fc6 (in-place)
I0530 14:20:26.148875  6908 net.cpp:122] Setting up relu6
I0530 14:20:26.148875  6908 net.cpp:129] Top shape: 1 512 (512)
I0530 14:20:26.148875  6908 net.cpp:137] Memory required for data: 9875456
I0530 14:20:26.148875  6908 layer_factory.hpp:77] Creating layer fc7
I0530 14:20:26.148875  6908 net.cpp:84] Creating Layer fc7
I0530 14:20:26.148875  6908 net.cpp:406] fc7 <- fc6
I0530 14:20:26.148875  6908 net.cpp:380] fc7 -> fc7
I0530 14:20:26.148875  6908 net.cpp:122] Setting up fc7
I0530 14:20:26.148875  6908 net.cpp:129] Top shape: 1 2 (2)
I0530 14:20:26.148875  6908 net.cpp:137] Memory required for data: 9875464
I0530 14:20:26.148875  6908 layer_factory.hpp:77] Creating layer prob
I0530 14:20:26.148875  6908 net.cpp:84] Creating Layer prob
I0530 14:20:26.148875  6908 net.cpp:406] prob <- fc7
I0530 14:20:26.148875  6908 net.cpp:380] prob -> prob
I0530 14:20:26.148875  6908 net.cpp:122] Setting up prob
I0530 14:20:26.148875  6908 net.cpp:129] Top shape: 1 2 (2)
I0530 14:20:26.148875  6908 net.cpp:137] Memory required for data: 9875472
I0530 14:20:26.148875  6908 net.cpp:200] prob does not need backward computation.
I0530 14:20:26.148875  6908 net.cpp:200] fc7 does not need backward computation.
I0530 14:20:26.148875  6908 net.cpp:200] relu6 does not need backward computation.
I0530 14:20:26.148875  6908 net.cpp:200] fc6 does not need backward computation.
…
